Reinforcement learning and its applications at CERN/QNet_weights.pth (torch, 22586 bytes, 6 tensors)

fc1.weight f4 [64, 8]
0.07092067 -0.33848482 1.6491601 3.3753784 0.99985385 -0.094025865 -0.20713252 -0.013633882
0.02074026 0.09968552 -1.771809 -0.32965383 1.132207 0.2938835 -0.42680147 0.8936086
-0.15601014 -0.24956156 -0.63684237 0.9625805 0.38655156 -0.36222467 1.3051941 -1.0056508
-0.11316041 -0.1306575 1.5551242 -0.80968374 -0.2955601 0.17175642 0.35751414 0.2280464
-0.25824708 0.77151215 0.4971899 -0.423481 -0.063593715 0.030643262 -0.7778793 -1.184924
-1.1274567 0.45390013 1.3329058 -0.5475684 0.035322186 -0.035247035 0.016646516 0.019697739
-0.048136804 0.5230616 -0.5498264 1.1499454 -0.1581064 0.26982123 0.5103352 -0.46423393
0.24511507 -0.4069231 0.117321484 0.17618322 -1.1209918 0.30811208 -1.123818 1.1388879
0.42990083 -0.16004874 -0.42854264 -0.31363425 0.8109334 0.050217092 -1.0828204 0.32238287
0.061066866 -0.18078275 0.13733393 0.12266505 0.14071152 0.8008703 0.7162301 -0.11822823
0.85104436 0.37218976 -0.17869739 -0.5024832 -1.2447265 0.690062 -2.3527143 -0.43910536
0.107516535 -0.97002995 0.16531347 -0.6986576 -1.5220281 -1.3170835 0.4134813 0.29651222
0.012576766 -0.040994164 -2.202367 0.4971873 -0.052239083 -0.07989273 0.57335955 0.57638985
0.16344878 0.23816332 0.6000327 -0.4355749 0.08815471 1.0395696 1.1833832 0.0034154644
-0.78780895 0.10198314 0.7769928 -1.0715438 -0.83829445 0.93182784 -1.5847727 -2.2760546
-0.06978141 -0.16994537 -0.4092443 -0.0027115457 0.6867346 -1.2903607 -1.4303956 -0.4908388
-0.007475388 -0.15613408 -2.3632758 3.3824854 -0.011810569 0.1265801 -0.04736705 0.035486866
0.1358002 0.20418964 1.012012 -0.065382935 -0.55872834 0.6028898 0.7510342 0.17488883
-0.3487691 0.28734648 -0.26025528 0.455299 0.5037092 1.8414869 -0.16821562 0.11514351
0.17490691 -0.1982919 -3.0514405 0.35641572 0.44708183 -0.33343 1.1597592 -0.4028735
1.8393724 -0.21586066 0.8706594 0.16684456 0.30879128 0.13657096 0.669463 0.9467814
-0.5876542 0.13137928 -0.56140304 0.33279002 0.6197581 -0.30731255 -0.41064706 0.96856123
-1.1687557 -0.8310752 -0.32824096 -1.3610357 1.0117762 0.27050138 0.67649794 -0.0018750493
0.6167059 0.3250718 -1.4184368 0.14415535 1.0108953 -0.21207012 -1.2833945 -0.2634671
0.25405928 0.46721599 -0.48158157 -0.87236714 0.055977374 -0.65734357 0.5777311 0.32296705
0.009302302 0.07666479 -0.88303685 -0.073284455 1.4880852 1.2750583 -1.8127183 -0.21638496
0.24424498 0.06598786 0.276445 0.16957094 -0.6566282 -0.69114894 -0.44622067 0.53780717
-0.6759373 -0.19094218 -0.7736914 0.095879786 0.39485183 -0.57895696 -1.7328781 0.6705453
-0.63345706 -0.46731392 0.5049645 0.6254885 -0.47253984 0.31336874 0.40077555 0.68234044
-0.27686274 0.17830902 1.3234468 0.64168555 -0.64056814 1.311279 -0.4553727 0.17631081
-0.04900368 0.030934509 -0.357751 -0.9574764 0.0042377305 -0.36974192 -2.0260446 0.60502666
0.49763393 -0.45361978 0.45911437 0.071514785 -1.0914026 -1.0014607 -1.5680267 0.7962255
00000000: db3e 913d e24d adbe ae17 d33f 3306 5840
00000010: 6cf6 7f3f a290 c0bd 8c1a 54be a560 5fbc
00000020: 7ae7 a93c ec27 cc3d a3ca e2bf 63c8 a8be
00000030: 29ec 903f e677 963e b985 dabe 89c3 643f
00000040: 1fc1 1fbe 118d 7fbe 1a08 23bf ad6b 763f
00000050: 16ea c53e 8375 b9be 9a10 a73f 2ab9 80bf
00000060: a5c0 e7bd 14cb 05be 4f0e c73f 6f47 4fbf
00000070: a753 97be eae0 2f3e 180c b73e ff84 693e
00000080: f638 84be d281 453f ad8f fe3e 80d2 d8be
00000090: 6c3d 82bd 9407 fb3c 1923 47bf 97ab 97bf
000000a0: 8050 90bf 9965 e83e a89c aa3f 712d 0cbf
000000b0: ffad 103d 325f 10bd 465e 883c 275d a13c
000000c0: 192b 45bd 5de7 053f 6cc1 0cbf 6931 933f
000000d0: a5e6 21be 0226 8a3e 54a5 023f 12b0 edbe
000000e0: 72ff 7a3e 3958 d0be 3f46 f03d 6069 343e
000000f0: a97c 8fbf dec0 9d3e 45d9 8fbf 14c7 913f
00000100: f61b dc3e d1e3 23be f169 dbbe ab94 a0be
00000110: 5599 4f3f 70b0 4d3d dc99 8abf 5e0f a53e
00000120: 4021 7a3d 1d1f 39be 44a1 0c3e d037 fb3d
00000130: ae16 103e d605 4d3f db5a 373f a421 f2bd
00000140: 0bde 593f a88f be3e 73fc 36be bda2 00bf
00000150: 3353 9fbf e7a7 303f df92 16c0 6bd2 e0be
00000160: a131 dc3d e253 78bf ef47 293e 39db 32bf
00000170: d1d1 c2bf 3196 a8bf d2b3 d33e 73d0 973e
00000180: c80e 4e3c 7fe9 27bd 95f3 0cc0 558f fe3e
00000190: a6f8 55bd cd9e a3bd b1c7 123f 498e 133f
000001a0: 1e5f 273e 16e1 733e be9b 193f ac03 dfbe
000001b0: 758a b43d 9e10 853f 1a79 973f fcd5 5f3b
000001c0: d9ad 49bf 89dc d03d 00e9 463f 5928 89bf
000001d0: 779a 56bf 458c 6e3f d5d9 cabf e1aa 11c0
000001e0: 8ee9 8ebd 2906 2ebe 7888 d1be 30b4 31bb
000001f0: d7cd 2f3f 8a2a a5bf 3417 b7bf 394f fbbe
00000200: 19f4 f4bb 9de1 1fbe e93f 17c0 a47a 5840
00000210: 1e81 41bc 379e 013e f403 42bd ad5a 113d
00000220: 350f 0b3e 1717 513e 9c89 813f 7de7 85bd
00000230: d208 0fbf fc56 1a3f c743 403f 0f16 333e
00000240: dd91 b2be 141f 933e 2e40 85be f31c e93e
00000250: 16f3 003f d8b5 eb3f b740 2cbe 5cd0 eb3d
00000260: cc1a 333e 080d 4bbe cd4a 43c0 1f7c b63e
00000270: e9e7 e43e 56b7 aabe fd72 943f 6f45 cebe
00000280: 8e70 eb3f 940a 5dbe 89e3 5e3f 4dd9 2a3e
00000290: e419 9e3e 42d9 0b3e ed61 2b3f 4460 723f
000002a0: 8170 16bf 4a88 063e 1cb8 0fbf 7463 aa3e
000002b0: 78a8 1e3f 1258 9dbe 5540 d2be a1f3 773f
000002c0: c999 95bf 58c1 54bf 330f a8be 6b36 aebf
000002d0: e281 813f 287f 8a3e f82e 2d3f 37c4 f5ba
000002e0: 70e0 1d3f d06f a63e 568f b5bf 769d 133e
000002f0: 0465 813f e928 59be 4546 a4bf 29e5 86be
00000300: 0f14 823e ef36 ef3e dc91 f6be 7453 5fbf
00000310: 8848 653d ab47 28bf 2fe6 133f f05b a53e
00000320: af68 183c 6e02 9d3d b40e 62bf 2916 96bd
00000330: 9379 be3f 1c35 a33f 2707 e8bf 0594 5dbe
00000340: 5b1b 7a3e a524 873d 338a 8d3e 01a4 2d3e
00000350: c918 28bf 23ef 30bf 0977 e4be bbad 093f
00000360: 3a0a 2dbf 5986 43be a410 46bf 9f5c c43d
00000370: 052a ca3e 8636 14bf f3ce ddbf dba8 2b3f
00000380: 3e2a 22bf c543 efbe 5a45 013f 0420 203f
00000390: bef0 f1be de71 a03e 7432 cd3e ddad 2e3f
000003a0: f4c0 8dbe a496 363e b466 a93f 8145 243f
000003b0: 46fc 23bf fed7 a73f 9c26 e9be d28a 343e
000003c0: 15b8 48bd 5e6a fd3c 242b b7be 2c1d 75bf
000003d0: a9dc 8a3b d04e bdbe b7aa 01c0 07e3 1a3f
000003e0: e0c9 fe3e da40 e8be 0a11 eb3e 5876 923d
000003f0: 15b3 8bbf dd2f 80bf 19b5 c8bf 6fd5 4b3f

fc1.bias f4 [64]
0.2295919 -0.2989371 0.28696367 0.1723975 -0.14601329 -0.11888548 0.06351106 0.32706136
-0.11333058 0.33196166 0.25370625 -0.29264367 0.0020494987 0.106356874 0.42435884 0.032190386
0.00969719 -0.40661478 0.2483918 0.22646719 -0.009410414 -0.27721092 -0.702122 0.4393361
0.061777078 0.057778265 0.18983606 0.020305434 -0.56583273 0.2613502 0.35588858 0.13817339
0.14201444 -0.5056391 0.3685293 -0.32341024 0.27093393 -0.20141295 -0.25480056 -0.36126685
0.46535394 -0.33247542 -0.04242384 -0.42393485 0.15779845 0.08987462 0.15162893 -0.2727093
-0.0042073275 0.35183388 -0.107147574 -0.008458007 0.19799201 -0.44341525 0.021509374 -0.63893807
0.28206024 0.23926431 0.31902015 0.062980205 -0.026147619 -0.0033169508 0.328558 0.12888035
00000000: 241a 6b3e 490e 99be e7ec 923e f888 303e
00000010: 8284 15be 3b7a f3bd 1612 823d 9674 a73e
00000020: dd19 e8bd e1f6 a93e c9e5 813e 64d5 95be
00000030: e250 063b a2d1 d93d 9045 d93e 11da 033d
00000040: f6e0 1e3c d02f d0be 6c5a 7e3e 04e7 673e
00000050: 232e 1abc 97ee 8dbe 44be 33bf a9f0 e03e
00000060: f609 7d3d e7a8 6c3d 6264 423e 9557 a63c
00000070: 6ada 10bf b2cf 853e 0737 b63e 537d 0d3e
00000080: 3c6c 113e 9071 01bf dfaf bc3e 0796 a5be
00000090: dab7 8a3e 323f 4ebe 3875 82be f8f7 b8be
000000a0: df42 ee3e 383a aabe 9fc4 2dbd fd0d d9be
000000b0: eb95 213e 2f10 b83d 9d44 1b3e 8ea0 8bbe
000000c0: 9fdd 89bb 9223 b43e 3070 dbbd 7493 0abc
000000d0: 6bbe 4a3e 5307 e3be 6d34 b03c 7291 23bf
000000e0: 336a 903e b401 753e 9c56 a33e c4fb 803d
000000f0: 8833 d6bc 3361 59bb c138 a83e 36f9 033e

fc2.weight f4 [64, 64]
-0.034607634 -0.05322151 -0.040114507 0.043599416 -0.06037158 -0.03817926 0.07373254 0.0058983746
0.09099744 0.036307387 0.051273324 0.028214931 0.096997306 0.029169902 -0.078044355 0.09302209
-0.048755392 0.019651245 -0.058036715 0.037159175 0.052683223 -0.07963535 -0.09765895 -0.10824265
-0.07678417 -0.07136404 -0.10869782 -0.060160562 -0.0733769 0.03420381 -0.04469043 0.02764344
-0.030903654 -0.04887311 -0.015057749 0.004948646 -0.09923433 0.06600313 -0.07134187 -0.092357576
-0.013606859 -0.09076367 -0.09523348 0.013940677 -0.037760146 -0.071953185 -0.009549884 -0.127289
-0.06919195 -0.07112064 -0.102219805 -0.014096178 -0.016718026 -0.12340154 0.09341646 0.05416812
0.063516095 -0.036863253 -0.060593713 -0.045747083 0.020311646 -0.098945566 0.012383913 0.083038904
0.077837706 0.027635239 -0.12268867 -0.11424678 -0.1702659 1.3019564e-05 -0.15161356 -0.093300164
-0.054166168 -0.09430976 -0.027883172 0.035801813 -0.07067334 -0.13710801 -0.07791593 0.011398444
0.07980997 0.036073208 -0.067022026 -0.026813269 0.021620955 -0.06748179 0.036463786 -0.02597253
-0.016736496 0.008673834 -0.081846304 0.00058060087 0.013109782 -0.06423806 -0.07293956 -0.121205844
0.038280185 -0.12205191 -0.04748878 0.037141133 -0.0114285955 -0.12698668 -0.057097483 -0.067724794
-0.0065091145 0.009701089 0.02883566 -0.053230632 0.0087854965 -0.025740338 0.06003162 0.06979831
-0.13894211 0.011980633 -0.033575125 -0.071835116 0.032851886 -0.036727242 -0.035029978 -0.13604972
0.044252954 -0.08542567 -0.12163986 -0.059387624 -0.15002793 -0.16270004 0.036734924 -0.065968625
0.07760194 -0.11647048 -0.017660653 -0.0034745028 0.018464006 -0.033994254 0.05122356 0.010424531
-0.055637352 0.023778569 -0.13857797 0.030648706 -0.20959477 0.019349622 -0.0016368984 -0.13745113
-0.09260437 -0.14329955 0.0059923166 0.021872591 -0.07150043 -0.092105165 0.027531223 -0.15834436
0.0153740365 -0.15713865 -0.14245719 -0.056259464 -0.124089114 -0.013136762 -0.055494983 -0.14735739
0.0145508405 0.04847944 -0.07998745 -0.07819372 -0.12560791 -0.123452015 -0.06349256 -0.12395204
-0.13497423 -0.17015679 -0.14153337 -0.12867832 -0.12137339 0.031237477 -0.16723587 -0.08673506
-0.06155744 -0.026289318 -0.047670715 -0.113271646 -0.007517933 -0.09055396 0.029317107 -0.02832248
-0.038299162 -0.0018879425 -0.1314322 0.054619487 -0.08991793 0.018928088 -0.07997892 -0.049612913
0.744123 1.1179454 0.57798463 0.14715843 -0.12571411 0.13035446 -0.19230369 -0.09848629
0.68927336 0.01479334 -0.40378523 0.04512138 0.04698348 0.21913797 -0.8742071 0.5407754
-0.15262032 0.32363456 -0.3358501 0.6254312 0.21696341 0.25657016 0.29755107 0.25571468
-0.044041988 -1.470327 -1.0828155 -0.28329086 -1.4946542 0.4195498 -0.32878268 -1.7572292
0.14786887 0.498335 -0.2679495 0.06819644 -1.0684267 0.3698164 0.77534807 -1.3672498
0.058422815 -0.4533249 0.33931047 0.9966634 0.32928714 0.5275322 0.4099938 0.54804355
-0.67000115 -0.19820474 -0.8251659 0.2530242 1.3498724 -0.36315602 0.784868 -1.9867831
-0.26853704 0.05782759 0.07736525 -0.21518877 0.20796001 1.5477688 -0.35330468 0.1570115
00000000: bcc0 0dbd ccfe 59bd 1c4f 24bd 4d95 323d
00000010: 3148 77bd db61 1cbd 1601 973d 2747 c13b
00000020: de5c ba3d 0eb7 143d fa03 523d 0023 e73c
00000030: 86a6 c63d b8f5 ee3c b8d5 9fbd 5e82 be3d
00000040: bcb3 47bd a6fb a03c e8b7 6dbd 3834 183d
00000050: 5dca 573d dc17 a3bd 6a01 c8bd 53ae ddbd
00000060: 0541 9dbd 4f27 92bd f69c debd ec6a 76bd
00000070: a146 96bd 4b19 0c3d 500d 37bd 7f74 e23c
00000080: a929 fdbc 2c2f 48bd c7b4 76bc 4028 a23b
00000090: 5e3b cbbd a62c 873d b01b 92bd f825 bdbd
000000a0: 4eef 5ebc 4ee2 b9bd c509 c3bd 7067 643c
000000b0: 62aa 1abd 315c 93bd 1e77 1cbc 0c58 02be
000000c0: 82b4 8dbd b3a7 91bd 9e58 d1bd a8f3 66bc
000000d0: 3ef4 88bc f2b9 fcbd 2151 bf3d 64df 5d3d
000000e0: ba14 823d ecfd 16bd 1d31 78bd 4b61 3bbd
000000f0: 9c64 a63c f9a3 cabd e5e5 4a3c 4d10 aa3d
00000100: 6069 9f3d 4c63 e23c 3344 fbbd 37fa e9bd
00000110: 2f5a 2ebe 9a6e 5a37 9640 1bbe 2814 bfbd
00000120: 58dd 5dbd 7a25 c1bd 406b e4bc eca4 123d
00000130: 2fbd 90bd 0b66 0cbe 6392 9fbd 8ac0 3a3c
00000140: 6973 a33d 80c1 133d d842 89bd 80a7 dbbc
00000150: 6e1e b13c e533 8abd 0d5b 153d 58c4 d4bc
00000160: fa1a 89bc b21c 0e3c 099f a7bd 7733 183a
00000170: 69ca 563c 3e8f 83bd 5661 95bd c53a f8bd
00000180: afcb 1c3d 5af6 f9bd 9883 42bd 4d21 183d
00000190: 013f 3bbc cc08 02be 0ddf 69bd 4cb3 8abd
000001a0: 694a d5bb 51f1 1e3c c338 ec3c 5d08 5abd
000001b0: 0bf1 0f3c 67dd d2bc b7e3 753d 6bf2 8e3d
000001c0: d746 0ebe 6b4a 443c 1286 09bd 4a1e 93bd
000001d0: b38f 063d 4e6f 16bd 987b 0fbd 9e50 0bbe
000001e0: 9642 353d a7f3 aebd 521e f9bd 7040 73bd
000001f0: eca0 19be d79a 26be 5c77 163d 8f1a 87bd
00000200: c4ed 9e3d 1388 eebd 13ad 90bc 7cb4 63bb
00000210: d441 973c 8f3d 0bbd cccf 513d a7cb 2a3c
00000220: fee3 63bd 46cb c23c 62e7 0dbe ff12 fb3c
00000230: 03a0 56be 1983 9e3c 328d d6ba fdbf 0cbe
00000240: 5ca7 bdbd 1ebd 12be 325b c43b 262e b33c
00000250: d16e 92bd a2a1 bcbd 2989 e13c 0625 22be
00000260: 62e3 7b3c f4e8 20be 4ce0 11be 5370 66bd
00000270: 6f22 febd 933b 57bc b54e 63bd dbe4 16be
00000280: a666 6e3c 6192 463d 76d0 a3bd 0724 a0bd
00000290: 5c9f 00be 69d4 fcbd 6308 82bd 91da fdbd
000002a0: af36 0abe 953d 2ebe 20ee 10be 40c4 03be
000002b0: 9d92 f8bd bde5 ff3c e13f 2bbe 27a2 b1bd
000002c0: a723 7cbd b25c d7bc 5e42 43bd f7fa e7bd
000002d0: fe58 f6bb 5b74 b9bd 6e2a f03c 8c04 e8bc
000002e0: 95df 1cbd d774 f7ba 2a96 06be afb8 5f3d
000002f0: e426 b8bd 140f 9b3c fdcb a3bd e936 4bbd
00000300: d87e 3e3f d618 8f3f cdf6 133f b3b0 163e
00000310: 33bb 00be a47b 053e 42eb 44be 2eb3 c9bd
00000320: 3874 303f c45f 723c f0bc cebe 32d1 383d
00000330: c071 403d b465 603e 09cc 5fbf 4270 0a3f
00000340: 8048 1cbe 6eb3 a53e 8bf4 abbe 421c 203f
00000350: a82b 5e3e 2a5d 833e 9d58 983e 09ed 823e
00000360: 5f65 34bd ad33 bcbf b399 8abf 800b 91be
00000370: d450 bfbf 3bcf d63e 3456 a8be e3ec e0bf
00000380: f06a 173e c425 ff3e ad30 89be 93aa 8b3d
00000390: 35c2 88bf 9358 bd3e 367d 463f 0b02 afbf
000003a0: c34c 6f3d 341a e8be 1aba ad3e 5525 7f3f
000003b0: 5398 a83e 5a0c 073f b5ea d13e 954c 0c3f
000003c0: 3285 2bbf 2ff6 4abe 133e 53bf 638c 813e
000003d0: 9ec8 ac3f 96ef b9be 1ced 483f e94e febf
000003e0: b07d 89be 9fdc 6c3d ac71 9e3d 725a 5cbe
000003f0: 78f3 543e 4a1d c63f 5ae4 b4be 9fc7 203e

fc2.bias f4 [64]
-0.12633063 -0.11145202 -0.10993839 -0.2128818 -0.14049177 -0.20159394 -0.14018703 0.2043127
0.42755 0.1407046 -0.11685181 -0.04696299 0.18013829 0.08888122 -0.023638228 0.101254456
0.42658243 -0.08460099 -0.15020905 0.12728712 0.09293884 -0.12649788 0.1631532 0.15418924
0.0961058 0.45547375 0.16471393 -0.117447324 0.105424285 0.07776294 -0.11725631 0.13663001
-0.27330637 0.1950144 0.31989336 0.22225875 0.21639468 0.31800827 0.032158352 0.0464624
0.16290233 -0.19138986 0.37166256 0.28873038 0.039634578 0.083222464 0.16033731 -0.75158364
0.105634026 -0.25633276 0.580182 0.004037456 0.06793232 0.11717629 -0.13041174 0.40043435
0.05064556 -0.6611983 -0.050995555 0.14706397 0.0036058442 0.20410922 0.096637584 -0.15448213
00000000: d15c 01be f540 e4bd 6127 e1bd b0fd 59be
00000010: 13dd 0fbe a46e 4ebe 308d 0fbe 5937 513e
00000020: d5e7 da3e de14 103e 0050 efbd 445c 40bd
00000030: 2c76 383e 5b07 b63d f5a4 c1bc 7f5e cf3d
00000040: 0369 da3e 4943 adbd 67d0 19be 8e57 023e
00000050: b856 be3d a988 01be a211 273e c9e3 1d3e
00000060: 1ed3 c43d db33 e93e c5aa 283e 3988 f0bd
00000070: b0e8 d73d 2d42 9f3d 1424 f0bd bde8 0b3e
00000080: d0ee 8bbe dbb1 473e 10c9 a33e cc97 633e
00000090: 9196 5d3e fbd1 a23e 7ab8 033d 5c4f 3e3d
000000a0: decf 263e b4fb 43be 8e4a be3e 78d4 933e
000000b0: de57 223d 8a70 aa3d 772f 243e c967 40bf
000000c0: a756 d83d 0c3e 83be cf86 143f a34c 843b
000000d0: 1a20 8b3d 1ffa ef3d a88a 05be bb05 cd3e
000000e0: b871 4f3d 4b44 29bf b7e0 50bd f097 163e
000000f0: 0750 6c3b 0202 513e ede9 c53d 9030 1ebe

fc3.weight f4 [4, 64]
-0.1102753 0.058430273 0.003668217 3.5721557 0.114051625 -0.90097356 0.06837069 0.80628604
1.367627 4.188091 -0.05570173 -0.96638197 -0.44377717 -0.6018454 -0.8819424 0.047792256
-1.1924154 -0.023601282 -0.3067929 0.78322345 -0.4137012 -0.053838838 -0.82151985 -1.4080971
-0.56381834 -0.988671 1.3684456 1.1386441 -0.7703386 2.0605555 0.10382573 -0.11803423
1.2480842 -0.77083135 -0.4798573 -1.2036275 -0.791818 -0.75137997 1.8026359 -0.43464795
-0.97996336 1.6483943 -0.69185376 -0.47395116 -0.6214094 0.28376135 0.83766645 -1.2302183
-0.526669 2.7005453 -0.7278635 0.010744354 1.9816012 -0.54073805 0.016489573 1.0082886
-0.66493505 -2.1759562 -1.6690782 0.4057133 -0.6388361 -0.56430215 -0.01644267 0.078213185
-0.095115736 0.0169809 0.0099033825 3.588523 0.089242525 -1.2070334 0.03429971 0.12253508
1.7139964 4.338798 0.03371359 -1.1742439 -0.36540446 -0.0016080444 -0.62041783 -0.03492792
-1.1863375 0.0138448225 -0.9149151 0.45125872 -0.5951279 -0.046411194 -0.84507537 -1.5169876
-0.89516735 -0.53987086 0.7639916 0.958617 -0.46997532 2.663388 0.03412968 -0.8297054
1.1490531 -0.7242068 -1.5225006 -1.5178795 -0.45615697 -0.43481815 1.9015962 -0.4588299
-0.6747456 1.6678381 -0.96755844 -1.0846236 -0.73269945 0.38830674 2.0308452 -1.3778279
-0.29884002 2.720479 -1.1619164 0.057660334 1.944263 -0.34012282 0.08724658 0.9412242
-0.5576345 -3.5165555 -1.8916607 0.14609492 -0.84837264 -0.28949448 -0.016551293 0.018359073
0.026533805 0.04167922 0.023630496 3.8293502 -0.08371289 -1.5324514 0.009350077 0.37864304
0.81463176 2.8949738 0.015982404 -1.0684714 -0.8756005 -0.6023762 -0.5638932 0.07053397
-0.9884581 0.032551743 -0.7882403 0.5216406 -0.6970617 0.07318338 0.3605009 -0.944032
-0.61575174 -1.2101619 1.8076459 1.7826755 -0.4219813 2.0753148 -0.033150956 1.571956
1.4830973 -0.5345455 0.6635011 -0.3309158 -0.6243414 -1.03088 1.4705266 -0.6704636
-1.1912222 1.8733449 -0.24927689 -0.6722721 -0.6843581 0.32545203 1.42018 -1.4237493
-0.89180523 2.3815281 0.23131487 0.072454035 1.6639802 -0.49389246 -0.11644015 1.0158262
-0.6705795 -1.8960935 -1.6241653 -0.72672415 -1.0521951 -0.68018144 0.011125865 0.0076628984
-0.03988211 0.024674205 -0.037583545 3.4681528 0.078982174 -1.2707448 0.10985218 0.87921757
1.0166633 3.6421897 0.08128029 -1.1397026 -0.5040884 0.027198935 -0.55514926 -0.083009124
-1.2000337 0.07061946 -0.84567356 0.39996397 -0.4574227 -0.010511264 -0.069467895 -1.0346086
-0.4942094 -1.1130337 1.9475474 1.4268191 -0.8534984 1.4451013 0.12082407 0.65058273
0.95344365 -0.23304974 0.53350025 -1.0568069 -0.6220064 -1.216779 1.7040784 -0.5000831
-1.5042026 2.267369 -0.59570223 -0.8554198 -0.20318078 0.7998175 0.99510306 -1.6308767
-0.053322688 1.9505217 -0.9444744 0.12387326 2.2827098 -1.1690707 0.11170335 0.9518323
-0.6912507 -2.4454844 -1.131582 0.4045635 -0.5733336 -0.5443648 0.10393486 0.03742818
00000000: 04d8 e1bd 9554 6f3d 7866 703b 339e 6440
00000010: e693 e93d 34a6 66bf ef05 8c3d c368 4e3f
00000020: 670e af3f d704 8640 7f27 64bd cf64 77bf
00000030: c336 e3be 8a12 1abf fac6 61bf d0c1 433d
00000040: 11a1 98bf 7a57 c1bc f613 9dbe 5581 483f
00000050: a5d0 d3be 1d86 5cbd 204f 52bf 873c b4bf
00000060: 6656 10bf 8b19 7dbf 3a29 af3f 17bf 913f
00000070: e934 45bf 24e0 0340 96a2 d43d eebb f1bd
00000080: 39c1 9f3f 3455 45bf dbaf f5be 7710 9abf
00000090: 96b4 4abf 705a 40bf c6bc e63f 2d8a debe
000000a0: e1de 7abf 96fe d23f 541d 31bf baa9 f2be
000000b0: b014 1fbf 2b49 913e 4f71 563f cb77 9dbf
000000c0: c8d3 06bf bcd5 2c40 4355 3abf 1609 303c
000000d0: 1ca5 fd3f cf6d 0abf 2415 873c 9a0f 813f
000000e0: 2f39 2abf de42 0bc0 5ba4 d5bf a7b9 cf3e
000000f0: c38a 23bf 1b76 10bf c7b2 86bc 3c2e a03d
00000100: 0acc c2bd 871b 8b3c cc41 223c 5caa 6540
00000110: c9c4 b63d 1280 9abf da7d 0c3d acf3 fa3d
00000120: 3c64 db3f 6fd7 8a40 4317 0a3d a04d 96bf
00000130: 4b16 bbbe 04c5 d2ba b4d3 1ebf 9410 0fbd
00000140: e8d9 97bf 65d5 623c e037 6abf 620b e73e
00000150: 4d5a 18bf aa19 3ebd dc56 58bf a62c c2bf
00000160: b029 65bf fa34 0abf f494 433f ec67 753f
00000170: 9ba0 f0be f374 2a40 90cb 0b3d 9367 54bf
00000180: 2c14 933f 9e65 39bf 4de1 c2bf e049 c2bf
00000190: 688d e9be 7ca0 debe 8167 f33f c1eb eabe
000001a0: 21bc 2cbf b87b d53f e9b1 77bf f2d4 8abf
000001b0: 3192 3bbf 24d0 c63e 5ef9 0140 aa5c b0bf
000001c0: 8f01 99be 541c 2e40 adb9 94bf 3e2d 6c3d
000001d0: 9cdd f83f 9424 aebe 56ae b23d 12f4 703f
000001e0: 22c1 0ebf 3f0f 61c0 f021 f2bf e899 153e
000001f0: f32e 59bf 9f38 94be 9496 87bc c465 963c
00000200: 6c5d d93c d4b7 2a3d be94 c13c 1314 7540
00000210: aa71 abbd 5e27 c4bf 1131 193c 80dd c13e
00000220: b58b 503f 4047 3940 88ed 823c acc3 88bf
00000230: 5b27 60bf 5435 1abf 4e5b 10bf 1d74 903d
00000240: 970b 7dbf fa54 053d 1eca 49bf 3d8a 053f
00000250: a372 32bf 2be1 953d 9393 b83e 15ac 71bf
00000260: e8a1 1dbf 96e6 9abf f160 e73f b62e e43f
00000270: ef0d d8be f5d1 0440 4cc9 07bd db35 c93f
00000280: 22d6 bd3f f9d7 08bf 35db 293f cc6d a9be
00000290: d7d4 1fbf e0f3 83bf 373a bc3f 81a3 2bbf
000002a0: f879 98bf c4c9 ef3f 7142 7fbe 061a 2cbf
000002b0: 1832 2fbf a6a1 a63e 75c8 b53f 6b3d b6bf
000002c0: 594d 64bf f56a 1840 cedd 6c3e c862 943d
000002d0: 4efd d43f 79df fcbe 2c78 eebd 9806 823f
000002e0: 19ab 2bbf 31b3 f2bf a6e4 cfbf 980a 3abf
000002f0: 54ae 86bf 5f20 2ebf 4349 363c 0d19 fb3b
00000300: 6c5b 23bd 8f21 ca3c 34f1 19bd 37f6 5d40
00000310: 68c1 a13d c4a7 a2bf 2efa e03d 6714 613f
00000320: 0622 823f a319 6940 4876 a63d c6e1 91bf
00000330: f00b 01bf 4dd0 de3c 431e 0ebf b000 aabd
00000340: b49a 99bf efa0 903d 107e 58bf 14c8 cc3e
00000350: 4f33 eabe 7037 2cbc 2f45 8ebd 0e6e 84bf
00000360: 0409 fdbe e377 8ebf 3c49 f93f 02a2 b63f
00000370: df7e 5abf 14f9 b83f 9c72 f73d 978c 263f
00000380: e214 743f 97a4 6ebe 7993 083f 7345 87bf
00000390: d03b 1fbf 6abf 9bbf 3e1f da3f 7205 00bf
000003a0: b689 c0bf 931c 1140 f17f 18bf cbfc 5abf
000003b0: 9f0e 50be d7c0 4c3f 13bf 7e3f 91c0 d0bf
000003c0: e468 5abd b2aa f93f 13c9 71bf 44b1 fd3d
000003d0: eb17 1240 1ca4 95bf bac4 e43d 48ab 733f
000003e0: cef5 30bf d182 1cc0 aed7 90bf f222 cf3e
000003f0: fec5 12bf 7e5b 0bbf cddb d43d 4b4e 193d

fc3.bias f4 [4]
0.33818495 0.06548643 0.23397961 -0.060136665
00000000: 9426 ad3e c01d 863d 5a98 6f3e dd51 76bd
